HW5/saves/DeepFM_implicit_best_model.pt (torch, 578796 bytes, 15 tensors)

linear.fc.weight f4 [6698, 1]
00000000: 635f a9bb e26e 013c e107 cc3b c19e 693d
00000010: ae49 893c e0b7 0c3c 1b05 f339 ec03 04bc
00000020: 2d17 2f3b 187d d3bb 47c6 a73b fdcb 803c
00000030: 5071 f5bb 1a02 233d 7379 2c3c 5f2d 79bc
00000040: 6f9a 13bd a9a0 1b3b 1c68 b83b 8cc0 2d3d
00000050: a0e8 d43c b53d e23c 6a83 dabc bf84 12bc
00000060: 7179 223d 8c45 033b cd6d 0e99 1cfe d0bc
00000070: 8ac1 3a3c c909 873b 3399 de3b 7f9b bf3b
00000080: 0ef6 283c d422 b23b 18b1 1dbd 774b ae3c
00000090: ff66 81bc 1ff3 0bbd 188b 933a 32ee d83c
000000a0: 1646 f33c d1d7 603c ae56 84bc 8e20 b2bc
000000b0: f60a 1f3c 7462 5fbe 6b00 33bd 01e3 0a3c
000000c0: b9ee 523c 1dcc 83bc 084b 003c 9a6e a53b
000000d0: 11fc 193e 5152 d3bc 35ae 873b 7f82 923c
000000e0: b7fe f6bd 0128 073a 0ee4 503b 65f6 d63c
000000f0: d202 643d 86d9 c63b ec06 603b 3749 923b
00000100: 6dc2 28bd 6fa4 88bc bf4b 2abc c636 80bb
00000110: 3b60 fc3b b607 74bb 9fb0 473d c0c9 e2bb
00000120: 01aa a4bd d24e db3b 194c 74bd cedc fdbb
00000130: a292 743b d9b7 83bd 25af 993b 0d9a ccbc
00000140: 3aae 0abd 3152 c83b 0a65 93bb 6655 e1bc
00000150: 9251 06ba 7c7a 353c ae0c 2e3c 014b cd3b
00000160: c195 a43a c4e9 583b 4beb 123c 7020 523c
00000170: a8f2 aa3c 0ac7 cb3b 9a11 29bc ba89 633c
00000180: ec97 57bc 444e ea3b 5c31 48b8 f4de 383b
00000190: 6b49 553b a0ed 223c 9075 f73a 7a96 413c
000001a0: 0360 31bd b006 263b 50e9 373b 5e14 abbb
000001b0: e8f7 0c17 ec31 c13c fa75 203b 00f0 91b8
000001c0: 3b13 a53c 4af4 833b 8d7c f7bb 8f93 29bb
000001d0: d441 86ba fd12 3fbc 3e29 2a3b 0cff 253c
000001e0: 8249 41bc 40ed 33ba ae1d 3cbc 1805 673b
000001f0: 14ce 9ebb 7d31 073b 4959 6f97 c9f6 21bd
00000200: dccb 19bc f0bb 303b c53c 41bc e0fe 083c
00000210: 692c 58bd 7d90 653c 2cd8 fabb 7a97 10bb
00000220: c31d b13b fbe6 0c3b 46eb f83b 2644 403b
00000230: 784b 80ba 7ea6 113d ddfc a1bd 8186 4e3b
00000240: 4519 353c c27d b7bb c47b 9e3b aaf5 c03b
00000250: 787f 17ba 15e8 8bbc 4ac4 bd3a 8fdb 0d3d
00000260: 24cf 173c d10b d63b 83fa e0bb 89d7 523b
00000270: fa09 b13a a269 c03b 3e6b eb3c 4a60 0c3b
00000280: dcac b13a 6e3d 05bc b5b2 b23c 7c85 443b
00000290: 8304 333b 3dab a33b 4b9b a33d 8c10 453b
000002a0: 452e 183b 8587 aa3b 2c57 df3b b263 193c
000002b0: 6769 83bc 875c 673b 61f6 df3a 5902 ab3c
000002c0: a3e6 603c 141e db3b 37d8 a53b 6bcf a9bc
000002d0: 56d5 33bc 3597 2ebb 070e 7e3b 50f1 bc3c
000002e0: db65 f73b da13 8d3a 0206 b33c 80da 2e3b
000002f0: e814 013d 8432 783c be3d 12bb 93ae 7c3c
00000300: 6540 2d3b 253d 8918 e167 0bbc 4927 6abb
00000310: 3f9b 16bc ced5 443d bf0c f83a c674 7dbc
00000320: 02c8 7dbc 8469 ca3b 8c64 e73a 30a4 a33a
00000330: bcf9 bb3b 38e0 c43a 04ce 153b 5c0e 193b
00000340: 6e95 413b 0484 54bc 5c1d b7b9 7d43 263c
00000350: fed1 e73c b88e 113b 864b ff3a 0586 2da2
00000360: e6e5 393b 646e f9bb 9627 b1bb 8b9e 233b
00000370: 3cc8 203d 5d7e 8e3c 7de7 d83b 6f80 49bc
00000380: b95d 313c c457 8a3b 0038 313b ff12 3c3b
00000390: 821f b53a 826a 24bb b15d 27bc a86d 353b
000003a0: 205e a63c 4841 81bb d0c5 9c3a 39b4 8e3b
000003b0: b3da 0f3c c113 19bd 639b 3b3c 74e1 42bc
000003c0: 5b36 d6bc 0915 2d3c 0741 bebc 4235 213b
000003d0: 3b73 8d3b da60 cb3b ae13 b33b a2df 7c3c
000003e0: 340e 9dba cdfb 1b3c 32b4 0e3b 4cce e83b
000003f0: e860 183b 407f d198 56c5 923b 4c0f 443b
-0.0051688417 0.007899972 0.006226525 0.057036165 0.016758766 0.008588761 0.00046352376 -0.008057576
0.0026716695 -0.0064541213 0.005120072 0.01572227 -0.0074903145 0.039796926 0.010527003 -0.015208571
-0.03603595 0.0023746884 0.005627645 0.042419955 0.02598983 0.027617315 -0.026673991 -0.008942782
0.039666597 0.0020030467 -7.363402e-24 -0.025511794 0.011398682 0.0041210395 0.006793165 0.005847394
0.01031257 0.0054362807 -0.038498968 0.021276219 -0.015796183 -0.034167405 0.0011256663 0.026480768
0.029696506 0.01372333 -0.016154613 -0.021744039 0.009707203 -0.218149 -0.04370157 0.0084769735
0.012874299 -0.01608854 0.007830389 0.005048585 0.15037562 -0.025796087 0.00414064 0.017884491
-0.12060302 0.00051558024 0.0031874212 0.026240537 0.055666752 0.0060684113 0.0034183813 0.0044642943
-0.041201044 -0.01667997 -0.010394036 -0.0039127795 0.0077019013 -0.0037236041 0.048752423 -0.006921023
-0.08040238 0.0066927457 -0.059642885 -0.0077472692 0.0037318845 -0.064315505 0.0046900683 -0.0249758
-0.03385756 0.0061133136 -0.004498129 -0.027506541 -0.0005123849 0.011076566 0.01062314 0.0062650447
0.0012556837 0.003309832 0.008967231 0.0128251165 0.02086766 0.0062187957 -0.010319138 0.013887817
-0.01315878 0.0071504433 -4.7729685e-05 0.0028209062 0.0032544981 0.0099443495 0.0018879641 0.011815662
-0.043304455 0.0025333576 0.002806265 -0.005220934 4.554934e-25 0.023583375 0.0024484382 -6.958842e-05
0.020150771 0.0040269243 -0.0075526894 -0.0025875305 -0.0010243007 -0.011662242 0.0025964524 0.010131609
-0.011797311 -0.0006863661 -0.011481686 0.003525084 -0.004846344 0.0020628863 -7.733776e-25 -0.039541993
-0.009386983 0.0026967488 -0.011794274 0.008361548 -0.052776728 0.0140114995 -0.007655164 -0.0022062943
0.005405159 0.002149998 0.007596406 0.0029337495 -0.0009788116 0.03555917 -0.07909558 0.0031513276
0.011053388 -0.0055997083 0.0048365314 0.0058886604 -0.0005779187 -0.017078439 0.0014478054 0.034633216
0.009265695 0.0065321703 -0.006865801 0.0032171926 0.0013507002 0.0058719674 0.02873766 0.0021419697
0.0013555544 -0.008132322 0.02181373 0.002998679 0.0027315922 0.0049947784 0.07988604 0.0030069677
0.0023220938 0.0052041435 0.0068158116 0.009362148 -0.01604147 0.0035302953 0.0017086976 0.020875143
0.013726863 0.006686935 0.005061175 -0.020728787 -0.010976156 -0.002664042 0.0038765685 0.023064286
0.007549984 0.0010763363 0.02185345 0.002668053 0.03151408 0.015148763 -0.0022314633 0.015422481
0.0026436087 3.547541e-24 -0.008508653 -0.0035728982 -0.009192287 0.048055463 0.0018924697 -0.0154697355
-0.01548958 0.006177129 0.0017653867 0.0012484845 0.0057365578 0.0015020436 0.002285839 0.0023354506
0.002953853 -0.012970928 -0.00034926354 0.010147926 0.028298374 0.002221031 0.0019477464 -2.3516821e-18
0.002836579 -0.0076120365 -0.0054063303 0.0024966325 0.03925346 0.01739424 0.0066193924 -0.012298687
0.010825568 0.0042218883 0.0027041435 0.0028697846 0.0013818594 -0.0025087898 -0.010215209 0.0027683768
0.020308554 -0.0039445497 0.0011960808 0.0043549803 0.008780169 -0.037372354 0.011450621 -0.0118945725
-0.026148966 0.010564097 -0.023224367 0.0024598395 0.004316715 0.006206614 0.0054649925 0.015434178
-0.0011982382 0.009520483 0.0021774885 0.0071046706 0.002325112 -5.4153723e-24 0.0044790907 0.0029916344

embedding.embedding.weight f4 [6698, 20]
00000000: fe19 48bd f1d8 e53c ce00 2cbd 0aa0 213d
00000010: 5c9e f8bc c164 89bb 121a 80bd 8f99 a63d
00000020: 9707 54bd 983f a13d 98fc b73a 43df 573d
00000030: 09a1 0b3d b5b1 cc3d 8f0f a8bc 8698 c5bc
00000040: 9e90 4c3d 978a 3fbc 5d86 bc3d edf1 c43c
00000050: f362 24bc 374d db3a cdc1 2f3b 753c cfbb
00000060: 6a38 d73a c06a 2e3c ee36 453c 7a13 5dbc
00000070: a9d8 2e3c 98ed 3d3c 8518 203d 5304 d9bb
00000080: b244 24bc f5c3 89bc 141d 8c3d a784 a23c
00000090: f539 b43b ce4c edbb 48fc 6b3b 1c68 b3bd
000000a0: 9b2a afbb a19c 9b3d 13e9 52bc 9e17 d4bb
000000b0: 1973 4b3d 71ff b7bb 3129 87bd 98a8 583d
000000c0: 0930 acbc 3bbc 6fbd 965c 903b 289a 80ba
000000d0: 4dd8 13bd 8caa 14bd 664e 063d 5f4e d63b
000000e0: 573a df3c a010 59bc 823a 2ebd 0be6 f1bd
000000f0: 7610 0dbd c557 513c f30e 25bd 32f7 9cbc
00000100: 9e15 93bb 3afe dc3c 98cb 07bd 023d 323d
00000110: 5820 d7bc 687f 43bc 0882 223d 8bd1 06bd
00000120: 3529 34bd 2416 06bd a043 113e 81d8 1ebd
00000130: 08bf 68b9 07ca 923c 6ed7 55bc 1697 4b3d
00000140: f813 e53c b769 a4bd a74d 0b3d dac2 2cbb
00000150: 050a 60bd dcad 283d 2f3d 403d 0026 bfbd
00000160: aa19 34ba ece5 453d 555a 2fbd ffbc 84bc
00000170: 72d0 b23c 02fd 863c 7fd2 debd bdd3 043d
00000180: cb83 29bd 77dd c4bb da52 a83c 0247 a1bc
00000190: a03b f4bb 45c6 7abc 019d 7dba 8e08 a23b
000001a0: f12d 56bc cd07 e63b 8008 42bb ec2c 85bc
000001b0: 9c74 a6bb 8e31 f53c 487c 573c f8f6 293c
000001c0: ef3d 953b 6e4d a83c 5099 8cbd af3b 843c
000001d0: 491b c83a 382d 37bb cbf7 dc3c 6add 073d
000001e0: 3de0 41bb c94f e93b afc8 81ba aab8 763b
000001f0: 5caa 1dba ae56 a1ba d88e 9fbb 356d 7d3c
00000200: 0461 493a 000a 11b6 8c32 3c3c 49f7 af3a
00000210: 9c1d b6b9 1486 84ba 74a2 1dbd f9c2 48bc
00000220: 5d64 2cbb 689b 2cb9 cbd2 433c 131b 023c
00000230: d7d2 7e3b 23fd d4bc b373 5e3c 147a 9aba
00000240: e6e3 63bc 6ccc 793b ac0f 283c 1b2c f2bc
00000250: ae68 653b 7d58 963c 9749 f1bc 0af3 783c
00000260: dc82 c83b eeaf 813b acf8 f13d 680d 273c
00000270: 0224 6fbc ec80 053c 768c 213b ba85 fabc
00000280: a333 c1ba ca42 18bc c80d a83a 779f a63b
00000290: c1fb 4dbc 7902 5cb9 4750 653a 402b c8bb
000002a0: 569b 0ebc 876a ed3b 96b7 8b3c 131c 033c
000002b0: 9339 2d3c 961b 823c dfa1 9fbd 4a6e 5cba
000002c0: 7c97 8bbb 5023 d5bb 58e5 743c afaf 013d
000002d0: babe b4bb bfbf f3bc 906f 0d3c d502 493c
000002e0: ff02 ebbc 2983 9bb9 9f47 02bc 94be adbc
000002f0: 8ca0 bbbc e644 9d3c 10fd 18bc 0bc6 3f3c
00000300: 090d 8a3c fe32 c73c 48eb eebd d7e8 b2bb
00000310: 69c8 8ebc 3eec 0e3a 057a d63c 558c 2e3d
00000320: 1e1b 0439 8bb9 a2bd 72d5 5b3d 525d 183c
00000330: 2229 c3bc e0bf 0c3d 44b9 c1bc 4f19 5abc
00000340: 57f3 39bd ac08 bb3c 248e 90bd c649 74bc
00000350: c95a 3abc a8a4 b1bc 5653 f63c 8167 52bc
00000360: 476f 8cbd cdee b63c 8dab f43c 1bd8 a93c
00000370: 17ef 25bc d3c4 a5bc 32f8 1ebb 6d0d 593c
00000380: 229f a0bc cc09 2c3c 7408 10bc 30ad 853c
00000390: 40bb 95bc 2ddc 373d cbf4 953d 8e31 913c
000003a0: 1158 463b 20aa 0a3d d229 b9bd 0d22 adbb
000003b0: 5d43 4cbb 4d57 7bbc 1435 0a3d 02e1 683d
000003c0: 8dcb 953b 1ebb e13a afc6 df3a d23b 16bc
000003d0: f662 093c 1242 f73a 9a03 a63c 80a8 3ebc
000003e0: 553a 353c d27d 79bc 1407 3a3d d36e 46bc
000003f0: 5290 a8bb 0046 1abc c205 cb3d 5875 8d3c
-0.048852913 0.028057547 -0.041992955 0.039459266 -0.03034895 -0.004192919 -0.062549725 0.08134758
-0.05176505 0.07873458 0.0014037071 0.052703153 0.034089122 0.099948324 -0.020515231 -0.02412058
0.049942605 -0.011690757 0.09205315 0.02404114 -0.010033357 0.0016731386 0.0026818395 -0.0063243457
0.0016420011 0.010645568 0.012037022 -0.013493413 0.010671773 0.011592291 0.039085884 -0.00662283
-0.010026144 -0.016817072 0.06841484 0.019838644 0.005500073 -0.007241822 0.0036008526 -0.08760092
-0.005345655 0.07598234 -0.012872952 -0.006472542 0.049670313 -0.005615168 -0.065996535 0.05289516
-0.021018999 -0.05852912 0.0044055684 -0.0009811567 -0.036094952 -0.03629546 0.03278961 0.0065401043
0.027249498 -0.013248593 -0.042536266 -0.11811455 -0.034439526 0.012777274 -0.04029746 -0.01916084
-0.004488661 0.026976693 -0.033153147 0.043515213 -0.02626054 -0.0119322315 0.03967479 -0.03291468
-0.04398461 -0.03273596 0.14185953 -0.038780693 -0.00022196409 0.0179186 -0.013051851 0.049704634
0.027963623 -0.08027976 0.034009602 -0.0026361258 -0.054697055 0.04118143 0.04693335 -0.0933342
-0.00068702793 0.048314974 -0.042810757 -0.016203402 0.02182791 0.016478065 -0.10879993 0.03242849
-0.041385453 -0.006007846 0.02054732 -0.01968718 -0.007453397 -0.01530606 -0.00096745795 0.0049448675
-0.013072477 0.007019973 -0.0029607117 -0.016256772 -0.005079819 0.029930856 0.01315219 0.010373823
0.004554502 0.020544734 -0.068651795 0.01614174 0.0015266921 -0.0027950536 0.026973626 0.03317014
-0.002958312 0.007120107 -0.0009901727 0.003764669 -0.000601446 -0.0012309158 -0.004869323 0.0154679315
0.0007681998 -2.1612504e-06 0.011486661 0.0013425137 -0.00034735806 -0.0010110759 -0.038485005 -0.012253516
-0.0026304938 -0.00016461092 0.011952112 0.007941025 0.0038882995 -0.025999611 0.0135773895 -0.001178565
-0.013909316 0.003811623 0.010257643 -0.029562047 0.003500502 0.018352741 -0.029454036 0.015194664
0.0061191153 0.00395774 0.118150085 0.010196067 -0.014595987 0.008148413 0.0024650372 -0.030581344
-0.001474012 -0.0092932675 0.001282149 0.0050849277 -0.01257223 -0.00020981756 0.0008747619 -0.0061086714
-0.008704027 0.007245365 0.017055314 0.008002299 0.010572809 0.015882295 -0.07794546 -0.00084087683
-0.0042600017 -0.0065044537 0.014947258 0.031661686 -0.0055159004 -0.029754518 0.008632556 0.012268742
-0.028687952 -0.00029661626 -0.007951646 -0.021209039 -0.022903703 0.019197892 -0.009337679 0.011704932
0.016851919 0.024316307 -0.1166597 -0.0054598856 -0.017429547 0.0005452073 0.02618123 0.0426143
0.00012598603 -0.07945546 0.053670354 0.009299593 -0.023823325 0.034362674 -0.023647912 -0.013311698
-0.045398083 0.022831284 -0.07058361 -0.014910167 -0.011374184 -0.02168496 0.030069035 -0.01284206
-0.06857162 0.022330666 0.029866958 0.02073293 -0.010127804 -0.020235455 -0.0024256823 0.01324783
-0.01960713 0.010500383 -0.008791078 0.016317934 -0.018277764 0.04488771 0.07322081 0.017723825
0.0030264894 0.03385365 -0.0904118 -0.0052836 -0.0031168081 -0.015340638 0.033742025 0.05685521
0.0045713843 0.0017221903 0.0017072762 -0.009169536 0.0083854105 0.0018864295 0.02026539 -0.011636853
0.011061271 -0.015227752 0.045416906 -0.0121113835 -0.0051441574 -0.009416103 0.099132076 0.017267868

mlp.mlp.0.weight f4 [20, 100]
00000000: f719 53bd e29a 923a 8a0b 81bd f210 dcbb
00000010: f014 0cbd 3881 e1bc 889f 95bc 69a0 393e
00000020: 2881 903c 16ab c83c c414 aebd f225 78ba
00000030: 1af2 23bc c32e 8dbd 33b0 08bf 85ba 34be
00000040: 4f4e 9cbc 40af 423d bc43 3cbb d537 bc3e
00000050: 35f1 a8bc 71de f33c 6894 83bd befd 9f3b
00000060: 35b7 cebb 3ca7 edbb cf1e 66bb a60b 953e
00000070: 4510 cebc da1d 8fbd e973 993c 76be 59bb
00000080: 870e 1e3d c007 873c d687 14bc 800c f93c
00000090: 08e5 843c 225a f0bc 9443 363d b72d 453d
000000a0: e260 24bc fa5f 25bd 52a3 3fbc 5e3e 58bd
000000b0: ca7e 9bba 2456 3f3c d050 ed3c fb4b 21bd
000000c0: 86cb 1a3d e80c b83a d3bf efbc e9b4 bd3c
000000d0: aef1 71bd 8e26 5cbc 5cf7 093d e4e8 cebd
000000e0: b4c1 ab3d 3db8 723d 909e 353d cd87 743d
000000f0: af0c b8bc 146b 64bc 58df 74bc 1234 bf3b
00000100: f306 963c e34a 523d 143a 983d 9584 71bd
00000110: 2cc6 80bd eb15 8cbd 282a a3bd be07 25bd
00000120: 45ca ba3c 43d4 1f3c 8054 853d a7a9 a8bc
00000130: 1aa0 90bc 0b87 cbbc b268 1e3b 062d c63d
00000140: 5eee 41bc c046 a63b d586 ab3c ce91 75bc
00000150: ca2c 923b ba77 ecb9 47fa 8abc 0daf 033e
00000160: e724 97bb 1a47 10bc bf4a d5bb 79b6 473d
00000170: 15b1 0b3c 51fb be3b eb75 d23c d77e cabb
00000180: c0c9 c3ba b832 a13b 7425 993c 14cd 2abe
00000190: 8ab9 d93c 69f7 89bd ce4c bc3d dfd0 c03c
000001a0: 071e 40bd ca48 383d aaa6 04bd 0320 53be
000001b0: ff7f a4bd c0e5 c93c a328 b33d b41a 4f3d
000001c0: f360 bc3c d368 a73d 53c8 1cbf f05b 123e
000001d0: 2f1f 30bd 3618 d3bd 915f 8b3d e466 793d
000001e0: f1e0 483d 58d7 7b3d 4da1 373d 5b9a fabc
000001f0: b7bb 8fbb db90 0b3d 810a 39bd 2044 cf3e
00000200: 38e3 a93d a4ec 8e3d 0f7d 9a3d d68f 633c
00000210: 0f27 5fbd 64b8 06bc 0ecb 4f3d e719 fdbc
00000220: 0010 893c bd88 27bc 8671 843c 9e8e 1cbd
00000230: 9d11 39bc db81 9d3c e65e 78bc d365 ff3b
00000240: d6fd d9bc 1f2d e7bc 6e08 763d e97d 183c
00000250: c9e3 b13c 72f0 26bd 560c 3cbd cc01 d53d
00000260: c9d2 c7bb 5e24 a0bd a0a6 2ebd ecaa ae3c
00000270: bbb1 283c 9f27 7cbb 43a1 6e3d 3af2 31bd
00000280: 1cd4 b3bc 364b 6cbb 82ae 48bc 99b3 bb3c
00000290: cf46 31bb b8c6 593c 2f04 813d 208c 2fbd
000002a0: b173 453c fb1e 4fbd dec7 a43b 9aa8 683c
000002b0: a520 343d d36c 3e3d 67eb 22bd e310 a33c
000002c0: dc32 1ebd 88f9 3cbc 4e24 80bc 1ea1 32bc
000002d0: 31c3 083d 8241 4ebd 32f4 ff3b 17e0 86bc
000002e0: ee2f 6fbd 7df1 9dbc 6030 2bbd c13c 0abd
000002f0: aa5b 3ebd a88c eabc 0b85 cabc d886 f8bd
00000300: aed7 533a c55c 753c 41c6 533c 4ddd 7bbd
00000310: 6d0e 0cbb 90c0 c6bd a5ac 08bd 54ac 873c
00000320: 4551 7cbd 1eea b23b 0736 61bd cb39 b93c
00000330: 04e6 58bc b516 d5bc fef3 c83b 1b89 e63d
00000340: be53 6cbc af8e 9e3d 5ca1 943e 543e b23c
00000350: 0a42 f23c bac7 603d 3ece a03e c46f b0bc
00000360: 0de7 a43c 7d64 b5bc 32ec 193d 5f76 c13e
00000370: 7250 b93c 6038 a939 a1a9 83bc 50f3 4cbb
00000380: 1bcc dbbb a810 36b9 d313 1d3d 36d8 463c
00000390: d358 33bd f3d8 253d 838b 17bd ed1b e7bc
000003a0: bae5 0d3b a53d 233d cffc 9fbc df3e 09bf
000003b0: 9681 afbc b0fe f2bc 64c7 bcbc 2d30 413b
000003c0: ffbd 463a 8cc3 bdbd bf0e ec3c 0f44 80bc
000003d0: 56d0 2cba e82d 3d3c c1eb 09bd 48a0 f73b
000003e0: 842a 2ebd 248e 633d d558 3f3d 3dcd c8bc
000003f0: 2385 863d 97ed 533d f119 79bc 79ef ae3c
-0.051538434 0.0011185075 -0.06301029 -0.006715887 -0.034199655 -0.027527437 -0.018264547 0.18127598
0.017639711 0.024495643 -0.085000545 -0.00094661035 -0.010006452 -0.06893685 -0.5339386 -0.17649277
-0.01908031 0.047530413 -0.0028726896 0.36761346 -0.020622829 0.029769154 -0.064247906 0.0048825433
-0.006308461 -0.007252602 -0.0035113578 0.2911045 -0.025154242 -0.069881156 0.018732028 -0.0033225096
0.038588073 0.016483188 -0.009065589 0.030401468 0.016222492 -0.029339854 0.04449804 0.0481393
-0.010032864 -0.040374734 -0.011696653 -0.052793853 -0.0011863348 0.011678252 0.028969198 -0.0393791
0.03779175 0.0014041932 -0.029266274 0.023157554 -0.059068374 -0.0134369265 0.033683166 -0.10103014
0.08386555 0.059257735 0.04434067 0.059699822 -0.022466986 -0.013941545 -0.014945827 0.0058350647
0.01831386 0.05134095 0.074329525 -0.05896433 -0.06287798 -0.06840118 -0.07967025 -0.040290587
0.022801528 0.009755197 0.06510258 -0.020588709 -0.017654467 -0.024844667 0.002417129 0.09676556
-0.011836616 0.005074352 0.020938316 -0.014988376 0.0044609057 -0.0004510263 -0.016965045 0.12859745
-0.0046125534 -0.008806014 -0.0065091546 0.048758004 0.008526106 0.005828299 0.025690993 -0.0061796713
-0.0014937446 0.004919376 0.018694617 -0.16679794 0.02657773 -0.06736643 0.09194337 0.023537097
-0.046903636 0.044991292 -0.032385506 -0.2061768 -0.08032226 0.024645686 0.08747985 0.050562575
0.022995448 0.081742905 -0.6124317 0.14292884 -0.04299849 -0.10307352 0.06805337 0.06088914
0.049042646 0.061484665 0.044831563 -0.03059118 -0.004386391 0.03407369 -0.045176033 0.40481663
0.08295292 0.06978729 0.07543384 0.013889274 -0.05448061 -0.008222673 0.050730757 -0.03089614
0.016731262 -0.010225472 0.016167413 -0.038221948 -0.011295703 0.019226959 -0.015159344 0.007794121
-0.026610296 -0.028219758 0.060066633 0.009307363 0.021715062 -0.04075665 -0.045910202 0.10400733
-0.0060981256 -0.078194365 -0.042639375 0.021321736 0.0102962805 -0.0038475764 0.05825926 -0.043443896
-0.021951728 -0.0036055571 -0.012248637 0.022912787 -0.0027050262 0.013292007 0.06299626 -0.042858243
0.012051509 -0.050566655 0.005028709 0.014200354 0.043976445 0.0464905 -0.03977528 0.019905513
-0.038622722 -0.011534102 -0.015642311 -0.010902671 0.033389274 -0.050355442 0.007811093 -0.016464276
-0.05839532 -0.01928019 -0.04179418 -0.033749346 -0.046474136 -0.028631523 -0.024721643 -0.121350944
0.000808115 0.014975731 0.012925685 -0.061490346 -0.0021370903 -0.09704697 -0.03336777 0.016561665
-0.061600942 0.005460038 -0.054983165 0.022610566 -0.013238434 -0.026011804 0.0061326018 0.112566195
-0.014424263 0.077420585 0.29029357 0.021758236 0.029572506 0.054877974 0.3140735 -0.021537669
0.020129705 -0.022142643 0.03757877 0.37785622 0.022621367 0.00032276195 -0.016072096 -0.0031272955
-0.006707681 -0.00017363077 0.038348984 0.01213651 -0.04378588 0.040490102 -0.036998283 -0.028211558
0.002165182 0.03985371 -0.019529728 -0.5361156 -0.021424096 -0.02966246 -0.023044296 0.0029478178
0.0007581412 -0.09265813 0.028815625 -0.015657453 -0.0006592324 0.011546589 -0.033672098 0.007556949
-0.042521015 0.055555478 0.046715576 -0.024511928 0.065683626 0.051740255 -0.015203939 0.021354424

mlp.mlp.0.bias f4 [20]
00000000: 84bd 7236 2a4e 90b7 08b6 95b7 e630 4616
00000010: 29fc d99f 6428 ae36 a405 f636 0dc0 c236
00000020: 45a2 3bb7 8cb3 9035 6013 24b6 3efc aeb6
00000030: e0b8 e51a bf3f b334 9cc7 a2b6 ea57 bd37
00000040: 8bd9 49b6 bc40 b537 2633 fe37 03e7 11b6
3.6171123e-06 -1.7202536e-05 -1.7846949e-05 1.6009742e-25 -9.232024e-20 5.190306e-06 7.332028e-06 5.804008e-06
-1.118385e-05 1.0781091e-06 -2.4449182e-06 -5.214969e-06 9.501086e-23 3.338773e-07 -4.851214e-06 2.2571494e-05
-3.007796e-06 2.1607026e-05 3.0302977e-05 -2.174115e-06

mlp.mlp.1.weight f4 [20]
00000000: 004b a43e 1b75 7b3e a61f 8b3e 848a d437
00000010: cf03 2a39 b592 a03e d877 953e 624c 9a3e
00000020: 23c0 c63e 758a 443e c693 a83e 5b05 1b3e
00000030: 11fd 802a 6c69 a53d cede 393e 6f60 683e
00000040: 8940 8c3e c3fa 3e3e 4e9f 523e fd4b 9a3e
0.3208847 0.24556391 0.27172583 2.533687e-05 0.00016213882 0.3136193 0.29192996 0.301364
0.38818464 0.19193442 0.32925242 0.15138762 2.2912968e-13 0.08076748 0.181514 0.22693036
0.27392986 0.18650346 0.20568582 0.301361

mlp.mlp.1.bias f4 [20]
00000000: 0527 273c 223d 983d 9a8e babe c377 ffb8
00000010: bd47 1cb9 2948 4cbd 99ad a6be ee6a af3d
00000020: de55 b3bd 7e3b a3be b9a4 873c d8a0 07bd
00000030: a949 26b1 cd20 3cbe 569c 57be d5cc 59be
00000040: b522 883d 5bd8 ffbd fc98 9bbe 5808 a6be
0.010202174 0.07433535 -0.3643692 -0.00012181655 -0.00014904044 -0.049873505 -0.3255432 0.08565317
-0.08756612 -0.31881326 0.016558038 -0.033112377 -2.419805e-09 -0.18371888 -0.21055731 -0.21269543
0.06647245 -0.124924384 -0.30390155 -0.3242824

mlp.mlp.1.running_mean f4 [20]
00000000: 6e59 103b f4e1 6e3b 0ba7 2ebd c87d 2836
00000010: 5310 abb7 7e72 6d3d d399 7ebd 8058 2abd
00000020: 70ed d73d 280a 28bd c286 aebc 25cb b4bc
00000030: d99f 1727 0baa 9a3d 7574 f23c 983a f43c
00000040: 1c5a 003d 5c82 4e3d cacd b6bb bc13 37bd
0.002202596 0.0036450597 -0.042639773 2.5107165e-06 -2.039239e-05 0.057970516 -0.062158417 -0.041588306
0.105433345 -0.04102531 -0.021304492 -0.022069523 2.1042113e-15 0.07551964 0.029596547 0.029813096
0.031335935 0.05041729 -0.005578731 -0.044696555

mlp.mlp.1.running_var f4 [20]
00000000: 3320 eb3b 446a af3b 8cc4 c33b 1447 502c
00000010: 0816 272f 9514 d33b 2ade d63b e3c4 e63b
00000020: 622d 393c 5ffb be3b f631 dd3b 1aa3 f43b
00000030: b592 820f 6445 873b b1c5 7b3b eef8 a53b
00000040: d4aa e63b fc10 e13b e450 763b 7c11 9b3b
0.0071754693 0.005353244 0.005974358 2.9598034e-12 1.5196389e-10 0.0064416626 0.0065572457 0.0070425137
0.011302324 0.0058283056 0.0067503406 0.0074657323 1.2875499e-29 0.004128145 0.0038417394 0.005065075
0.0070394073 0.00686848 0.0037584836 0.004732309

mlp.mlp.4.weight f4 [20, 20]
00000000: c642 b03d 3738 cb3d 5172 8ebd 8c0a 149f
00000010: ea35 8528 1312 af3d f3d2 79bd d955 fd3d
00000020: efbb 003e fcd0 fbba 3f2e 143e fab6 cf3c
00000030: 2aac 8cb2 4c62 353b c61b 24bc e118 7ebd
00000040: 9c38 dd3d 795a 45bd a010 0dbe 646f f0bd
00000050: 98cd 183e 63ba a23d 3933 8abd df57 5935
00000060: 005d 4fb7 b8a5 b83d e60b 3ebd 9167 e73d
00000070: 2e56 133e 6c7a adbb 83f0 4d3d e7dd 8f3d
00000080: 9cba 43b3 a6eb 0dbc 7f95 d0bd 509d 21be
00000090: 7fd0 ca3d 29ae ddbd 0fc9 17bc 7354 a9bd
000000a0: ea0f d83d 1b17 bb3d 695a 3fbd b3d8 eb31
000000b0: b9aa 3d38 49fb c13d 78d6 afbd d184 093e
000000c0: 36da c23d cfda 03bc cd3c ea3d ce81 2d3d
000000d0: 534f 9132 0d49 bdbc 8cbd aabd 8a68 e3bd
000000e0: e50a 783d 9615 fbbc 9c72 673d 75eb 53bd
000000f0: 2866 afbc 5737 04bd d33f 013e 0a8b 35ac
00000100: 28a6 1732 bb32 28bd 26ac d73c 5930 86bd
00000110: 73af 8fbd 316f 013d 2380 48bc 1274 803c
00000120: ed64 5232 7edf 6e3c a0ee d83d 30e1 a33d
00000130: fec4 02bc 07c5 a33c 78ff 2f3e f1f9 2f3e
00000140: c70b e03d f2b3 5e3d 5e27 a4bd 41bc adad
00000150: 84d8 b4b5 4faa 903d 4bdf 5dbd 8799 0c3e
00000160: 11e9 1f3e 0be1 50bc 8955 ca3d 72d5 9a3c
00000170: 44f2 3633 4aa7 99bc f0e2 163a 27dc 5bbd
00000180: 1cc6 953d 5932 5bbc eb03 d0bd 92b2 84bd
00000190: 97dd 1d3e 4e47 603d 02fa 8abd c1c0 5f30
000001a0: cf51 9fb2 ff7f d33d e3be 77bd dfed 003e
000001b0: 4b56 f73d 8b02 bcbc 2298 dc3d 0cc6 583d
000001c0: 16f8 1d32 563b 3cbd ea6d 63bd d905 86bd
000001d0: 525e be3d e969 afbd e6c3 1bbc dc32 e9bc
000001e0: e110 f33d be51 4c3d a78a dabd e939 55ae
000001f0: 72f9 d236 b043 b03d 93bf cebd 59fa c53d
00000200: fa93 c33d 586c 8bbd 1b18 e43d cf84 e6bc
00000210: 593b e032 bbce ea3c 78be d0bd f6b6 05be
00000220: 4477 8e3b 646c 8dbd 2924 54bd b3fd b3bd
00000230: c3e3 f13d 1af6 d33d 3108 b2bd 8642 deae
00000240: e74d 9eb7 c6fb 713d e033 4fbd f57e 033e
00000250: 5745 023e 7542 4cbc c375 dd3d de8c e23c
00000260: 82f9 b7b2 fd1e 9d3c 6543 7bbd 6508 f8bd
00000270: 6eda 623d 4021 88bd 48ec 0fbd 1d6b a5bd
00000280: 368a 033e a97e a63d 8c45 68bd 3182 6eb0
00000290: 8c27 b037 4599 953d 82d6 4dbd 463d 0c3e
000002a0: b1bb ef3d d76b 04bd 94d0 f73d 203b dcbc
000002b0: 3553 d832 82b3 ab3c 95c8 22bd 5ae5 bfbd
000002c0: 9833 8d3d 37e3 2cbb 2955 35bd b018 c8bd
000002d0: 6400 b33d 92f9 ab3d 2c68 a7bd 0ec6 5222
000002e0: 8064 8729 7b6f d13d ef33 9fbd eca3 c73d
000002f0: bc7d 923d b165 febc fb58 c83d 7641 fd3c
00000300: 1ab0 a4b2 eb0d 65bd b26f 68bd f372 d3bd
00000310: cae0 b23d a771 d0bd c06f c13c 19e3 65bd
00000320: c4c8 553c fe68 1a3c 4547 2f3e 0925 23b0
00000330: 1d48 04b1 4710 82bc a8c9 033e 8a68 5fbc
00000340: 2490 07bd 0ad0 323d 1072 a2bc 9609 113b
00000350: 3cd1 d2af 0229 4e3c 8be4 bd3d 589b 703d
00000360: 4486 87ba 72e6 bb3c f97f 063e 69bf 483e
00000370: 066b df3d cf18 893d acf8 3abd 9988 909d
00000380: 56b1 cea8 083e e83d 6837 74bd c29d 093e
00000390: 95f7 cc3d d219 1abd 4b27 133e 116a b63c
000003a0: 40e7 b4b2 7fd3 243d 038f 88bd 43e1 d2bd
000003b0: 3a7d a73d 3363 3bbd 5201 443c 3672 9cbd
000003c0: d049 25bd 961f 0ebd c1ba 2c3e 05cf 43a9
000003d0: e24e ac2c a223 30bd 8d7c e13d 0539 b0bd
000003e0: e806 74bd 1563 b23d 075f a8bd 4539 373b
000003f0: de42 ef31 8f3f b33c ec2b 6e3d e607 933c
0.08606486 0.099228315 -0.06955398 -3.1348943e-20 1.4789348e-14 0.08548369 -0.060992192 0.1236989
0.12571691 -0.0019212062 0.14470766 0.025355805 -1.6376436e-08 0.0027676998 -0.010016387 -0.062035445
0.10801813 -0.048181985 -0.13775873 -0.11739996 0.14922178 0.07945707 -0.06748051 8.096667e-07
-1.2359815e-05 0.09015983 -0.046398066 0.112990506 0.14388344 -0.005294135 0.050278198 0.070247464
-4.5571696e-08 -0.00866214 -0.10184764 -0.15782666 0.09903049 -0.10824234 -0.009264245 -0.082680605
0.1054991 0.091352664 -0.04671708 6.864036e-09 4.522011e-05 0.09471757 -0.085858285 0.13429572
0.09514277 -0.0080477735 0.11437378 0.04236012 1.6916294e-08 -0.023106122 -0.083369344 -0.111039236
0.060557265 -0.030649941 0.056505784 -0.05173822 -0.021411017 -0.03227934 0.12622003 -2.579883e-12
8.827136e-09 -0.041064005 0.026327204 -0.0655219 -0.07015886 0.03160018 -0.012237581 0.015680347
1.2246557e-08 0.014579652 0.10592389 0.080019355 -0.007981537 0.01999141 0.17187297 0.17185189
0.10939746 0.054370828 -0.08015321 -1.9751424e-11 -1.3474059e-06 0.07063734 -0.054168027 0.13730441
0.15616252 -0.012748967 0.09879596 0.018900607 4.2595516e-08 -0.018756527 0.0005755862 -0.05367675
0.07313177 -0.013378703 -0.10156997 -0.06479372 0.15416561 0.0547555 -0.067859665 8.1400847e-10
-1.8547238e-08 0.10327148 -0.060484778 0.1259074 0.12077006 -0.022950431 0.107712045 0.052923247
9.195011e-09 -0.045955025 -0.055524744 -0.06544084 0.09295334 -0.08565123 -0.009507155 -0.028466634
0.11868454 0.049882643 -0.10670977 -4.8482027e-11 6.287527e-06 0.0860666 -0.10095134 0.09666891
0.09549709 -0.06807774 0.1113741 -0.0281395 2.610402e-08 0.02866303 -0.10192579 -0.13058075
0.0043477137 -0.069054395 -0.051792298 -0.08788624 0.1181102 0.103496745 -0.08692969 -1.0107208e-10
-1.8871344e-05 0.059078 -0.05058658 0.12841399 0.12721764 -0.0124670165 0.10813477 0.027655061
-2.1417467e-08 0.019179815 -0.06134357 -0.12110976 0.055384092 -0.06646967 -0.035137445 -0.08077071
0.12845692 0.08129627 -0.05670695 -8.676891e-10 2.099925e-05 0.073046245 -0.0502534 0.13695249
0.11705721 -0.032329407 0.1210033 -0.026883662 2.5183548e-08 0.02095962 -0.03974207 -0.09369917
0.06894606 -0.0026380548 -0.04427067 -0.09770334 0.08740309 0.08397211 -0.08174166 2.8565156e-18
6.012638e-14 0.10226341 -0.077735774 0.097480625 0.07152888 -0.03105435 0.09782597 0.030915003
-1.9172194e-08 -0.055921476 -0.056747146 -0.10324659 0.08734281 -0.101779275 0.023612857 -0.05612478
0.013048355 0.009424446 0.17117031 -5.9351685e-10 -1.924952e-09 -0.015876902 0.12869895 -0.013635764
-0.033096448 0.043655433 -0.01982978 0.0022130958 -3.8347447e-10 0.012583019 0.09272107 0.058741897
-0.0010339697 0.022937033 0.13134755 0.19604267 0.10909085 0.06694185 -0.04564731 -3.825772e-21
-2.2947502e-14 0.113399565 -0.059623152 0.13439086 0.1000816 -0.03762228 0.14370458 0.022267373
-2.1059918e-08 0.04024076 -0.06667902 -0.102968715 0.08178182 -0.0457489 0.011963205 -0.076389715
-0.040353596 -0.03469809 0.16868116 -4.347826e-14 4.8972918e-12 -0.043002732 0.11010084 -0.086046256
-0.0595769 0.08710305 -0.0822125 0.002795772 6.9634174e-09 0.021880893 0.058147356 0.017948102

mlp.mlp.4.bias f4 [20]
00000000: 40be 7935 5d8a 58b7 9a1d eeb5 3914 cc35
00000010: e4dc 1fb6 08ac 3eb5 ac21 56b6 568c 62b6
00000020: 40f9 88b5 4166 a0b5 946f c235 7dfc 18b5
00000030: 1415 c2b3 8862 2336 a40c f2b4 0b20 eb36
00000040: ba63 b3b6 b0c8 6234 a81f 7534 a8bb 1034
9.303658e-07 -1.29068185e-05 -1.7740997e-06 1.520507e-06 -2.3821422e-06 -7.1030854e-07 -3.1908085e-06 -3.375831e-06
-1.0205331e-06 -1.1950689e-06 1.44866e-06 -5.699183e-07 -9.037663e-08 2.4346245e-06 -4.508521e-07 7.007276e-06
-5.3462254e-06 2.11209e-07 2.282892e-07 1.3479314e-07

mlp.mlp.5.weight f4 [20]
00000000: dde0 cf3e 714e e23e ed66 c43e 4c6a a53e
00000010: 5851 ef3e b58c d43e f80e d63e 776e d53e
00000020: 744a d73e c4e3 a23e 7a17 ba3e f183 a13e
00000030: 9317 be3e 9078 ec3e 75ba b23e 269f d93e
00000040: 387a d63e 1cca ab3e 5c45 983e 727a aa3e
0.40601245 0.4420047 0.38359776 0.3230766 0.46741748 0.415136 0.41808295 0.4168584
0.4204899 0.31814396 0.36346036 0.31545976 0.3712736 0.46185732 0.3490788 0.42504233
0.4189012 0.33552635 0.29740417 0.33296543

mlp.mlp.5.bias f4 [20]
00000000: c333 b33e ef9a 003f 53f7 fa3e 593e 863b
00000010: 30e5 d63e 8369 e03e af13 fa3e 919a f33e
00000020: dbe2 ee3e 4166 d83e 981b 8a39 e47a d23e
00000030: df6b a73c 948c e83e edfc 46bc 9beb e53e
00000040: dc00 d63e 1318 f7bc 1d33 10bd 1efb fb39
0.3500043 0.5023641 0.49016818 0.004096788 0.4197173 0.438305 0.48843142 0.47578862
0.46657452 0.42265514 0.0002634197 0.41109383 0.02043718 0.45419753 -0.012145263 0.44906315
0.4179753 -0.030162847 -0.035204995 0.00048061548

mlp.mlp.5.running_mean f4 [20]
00000000: de08 d03d 1671 cc3d ae66 bc3d 7704 94bc
00000010: 8a04 c13d 67b1 d13d b5ff 783d 20a5 bb3d
00000020: e013 bb3d 2e3f a93d fdf1 9dba 976f bc3d
00000030: 9ff3 febc d9b5 d93d 9087 8b3c 0c72 bd3d
00000040: b442 823d 7922 b2bc 6866 89bc 69ed 2bbc
0.10157941 0.09982507 0.09199272 -0.018068535 0.09424694 0.10238915 0.060790736 0.091623545
0.0913465 0.08264004 -0.0012050268 0.092009716 -0.031122027 0.10630388 0.017032415 0.09250268
0.06360379 -0.021744953 -0.016772464 -0.010493615

mlp.mlp.5.running_var f4 [20]
00000000: 94ef 633c 72f4 5f3c fc35 2f3c 0874 8c3b
00000010: 6797 2d3c 50d0 513c 26a2 133c a55b 453c
00000020: cc82 303c 12fc 283c 502b a13b 58cc 453c
00000030: b201 003c 9b97 443c fc6d 8d3b 7e9c 2f3c
00000040: 5405 0d3c e57d c13b a3fc 823b 9d32 b93b
0.0139121 0.01366912 0.010694023 0.004286293 0.010595179 0.012806013 0.009010827 0.012045776
0.010773372 0.0103140045 0.0049184933 0.012072645 0.007812904 0.011999036 0.0043160897 0.010718463
0.008607227 0.0059049004 0.003997402 0.0056517855

mlp.mlp.8.weight f4 [1, 20]
00000000: afc1 ef3e 47b9 173f e8a2 0e3f 986e 89be
00000010: 55ab 063f 7dd4 083f a07c 0b3f 3a4f 0d3f
00000020: af52 0d3f 5480 ef3e 9953 97be f369 e83e
00000030: a247 97be 889f 0d3f 3fd0 95be 9195 073f
00000040: 3ba2 ff3e 5730 91be 0dea 83be 1413 8ebe
0.46827456 0.59267086 0.55717325 -0.2684219 0.5260518 0.5344923 0.5448704 0.55199015
0.5520429 0.46777594 -0.29555967 0.45393333 -0.2954684 0.5532155 -0.29260442 0.52962595
0.4992846 -0.28357193 -0.25764504 -0.2774893
