HW5/saves/FM_implicit_best_model.pt (torch, 564067 bytes, 2 tensors)

linear.fc.weight f4 [6698, 1]
000000 7e 38 73 bd 2b c9 8e bc 77 b1 1e 3d bb ee 19 be
       -0.059380047 -0.017429909 0.038743462 -0.15032475
000010 bc a6 75 3c fd ed 7f 3c ba 7a 06 3c 51 b1 a2 bd
       0.014993366 0.015620706 0.008207971 -0.07943977
000020 a3 29 ec 3c 66 82 fd 3c 1d 18 b1 3c 68 58 c2 3d
       0.028828448 0.030945968 0.021617943 0.094895184
000030 44 49 93 bc f7 c0 ad 3d 58 01 bd 3d 0e 58 a7 3c
       -0.017979272 0.08484071 0.09228772 0.02042773
000040 91 2d b4 3c f4 fd 26 3c 2a 3a 00 3d 18 ff 87 bd
       0.021994384 0.010192383 0.03130547 -0.06640452
000050 fd 0d c9 3d d5 e6 19 bd f7 a8 57 3d ef 67 e0 3c
       0.09817121 -0.037573654 0.05265137 0.02739331
000060 e2 f1 96 bc 90 a2 37 3c 7d 7c 6e be 02 65 54 bd
       -0.018425886 0.0112081915 -0.23289676 -0.05185414
000070 14 1c 2a 3d d2 d8 84 3c d9 11 21 3d e8 46 d9 3c
       0.041530684 0.01621667 0.03932366 0.026523069
000080 15 00 b4 3d 19 de a3 3c 58 ab c2 bd bb 99 4e 3d
       0.08789078 0.020003365 -0.095053375 0.050439578
000090 4b 5d 86 3c 57 b6 64 bd aa 0c 62 3c 7d 5c df 3b
       0.016401907 -0.055837955 0.013796965 0.0068164454
0000a0 de 9d 7c 3d a2 da ce 3c 1a 66 52 bc c3 dc 05 be
       0.06167399 0.025250737 -0.012841726 -0.13072495
0000b0 5c cb 96 3e bb 8b ff be 13 4d f6 bc 5a db ab 3d
       0.29452026 -0.49911293 -0.030066049 0.08391447
0000c0 5e 90 07 bb 54 73 84 3b 8d a3 21 3d 3e 4e 8c 3c
       -0.0020685415 0.0040420685 0.039462615 0.017127153
0000d0 6b 80 1f bd e2 84 12 bd f3 8f 05 3c bf 54 14 3e
       -0.03894083 -0.03577126 0.008151996 0.14485453
0000e0 b7 7d 8d be bd 7d 5d 3d 67 07 83 3c 32 03 81 bc
       -0.27634975 0.05407499 0.01599474 -0.015748594
0000f0 7a 6a 94 3d 8e bc ee 3c 3a 1c 94 bf fb f6 0c 3d
       0.07246871 0.029142644 -1.1571114 0.034415226
000100 fd f4 52 be 5a eb 5b 3d 46 90 17 3c 75 2a 37 3d
       -0.20601268 0.053691246 0.009250706 0.044718225
000110 3e 3f 2c 3b a2 0c 95 bb 53 31 43 3d ec d6 0f 3d
       0.0026282812 -0.004548625 0.04765446 0.035117075
000120 aa b7 c2 ba bb 3f bb 3c bb e6 4e be 63 4c 0e 3d
       -0.0014855762 0.022857537 -0.20205204 0.034740817
000130 a9 9e 09 3d 58 db 8f be d1 6c 08 bd 75 7c 87 bd
       0.033598576 -0.28097034 -0.0333069 -0.06615535
000140 71 1b 25 bd 85 66 8d 3c 9f 81 87 bd 78 66 5b bd
       -0.040309373 0.0172608 -0.0661652 -0.05356452
000150 34 ac 97 bb 62 8d 10 3c 7a 32 24 3d 5c 6a 1a bc
       -0.0046286825 0.008822771 0.0400872 -0.009424772
000160 9a 16 27 3b c6 24 97 3d 93 c5 a6 3c 3a b7 9e 3d
       0.002549565 0.07380061 0.020357883 0.077497914
000170 66 5d dd 3b 32 02 69 3d d4 3d 2d 3e 55 5a 17 3e
       0.0067555187 0.05688686 0.16918117 0.14780553
000180 b8 e9 bc 3c 5e 2b 0d 3d b4 6d 89 3c 7c bf 3b 3c
       0.023060665 0.034465186 0.016775943 0.011459228
000190 b1 56 db 3c 09 88 1b 3d 25 0e 1c 3c 32 39 b1 bb
       0.026774736 0.03797153 0.009524857 -0.0054084295
0001a0 72 9c 07 bd 80 2a 21 3d 26 72 35 3c 26 f8 39 bc
       -0.033108182 0.03934717 0.011074578 -0.011350667
0001b0 c1 e9 30 be dd 62 10 bd 39 9b 3a bc d4 28 e5 3c
       -0.1727667 -0.035250533 -0.011389547 0.02797357
0001c0 f9 d6 47 bc b4 55 19 3d f0 c9 e3 b8 1f 2d 42 bb
       -0.01219725 0.03743525 -0.00010861817 -0.0029628945
0001d0 07 43 83 3c db d4 cd bc 95 1a 8f 3c ee 70 0a 3d
       0.016023172 -0.025125911 0.01746873 0.033799104
0001e0 20 11 c5 3e d7 6e 86 bc 7d 83 10 bd 47 d0 da 3d
       0.38489628 -0.016410274 -0.035281647 0.10684257
0001f0 b2 b0 0a be 01 13 a5 3d 06 2d 0f 31 ae 1f 85 bb
       -0.13543966 0.08060265 2.0834832e-09 -0.0040626144
000200 c5 1c cc bc 17 a9 ad bd d2 24 30 bb 89 57 af 3b
       -0.024916062 -0.08479517 -0.0026877415 0.005351011
000210 d6 40 e0 bd a7 87 9b bd 85 35 ab bc 73 c4 60 3c
       -0.109498665 -0.07594233 -0.020899544 0.013718712
000220 28 2d 99 bc f8 a0 cd bd 61 9d 1f 3d 9c 87 34 3c
       -0.01869829 -0.10040468 0.038968448 0.01101866
000230 5d 3a 82 3e 9c 1a 64 3c 11 e0 1e bd f6 68 95 bd
       0.25435153 0.01392236 -0.038787905 -0.0729541
000240 63 f4 ef 3b 9b b3 50 3c 3e ed 48 3d bf 77 43 3d
       0.0073228343 0.012738134 0.049054377 0.04772162
000250 eb cd 68 3c c7 97 c4 bc 40 41 9a 3c 43 a3 4e bd
       0.014209251 -0.023998154 0.018829942 -0.050448667
000260 a0 8b 84 3d 7f 11 62 3d e0 46 65 ba 70 60 8f 3c
       0.06471944 0.055192467 -0.0008746218 0.01750204
000270 7f f9 20 3d 18 6c ee 3d d1 11 ba 3c 26 5e c8 3e
       0.039300438 0.11641711 0.022713574 0.3913433
000280 5c 42 4c 3c da 40 47 bd 4a fc 06 bc 94 c3 5c 3c
       0.012466993 -0.04864583 -0.008238861 0.013474364
000290 0e 91 e8 3c 91 8e be 3c 39 ab bb 3d 4a 7a df 3c
       0.02838948 0.02326134 0.091635175 0.027279992
0002a0 c2 79 8e 3c 7a 97 1d 3d 43 ac f1 3c 8a 08 cb bd
       0.017392043 0.038474537 0.029501086 -0.09913738
0002b0 2e f4 10 bd 81 58 ab 3c 76 5c 44 3c 48 4f 17 3d
       -0.035389118 0.020916225 0.011984935 0.036940843
0002c0 98 ee e1 3b 0f be 2a 3c 0c 4c a4 3c b0 c1 26 3d
       0.0068948977 0.01042129 0.020055793 0.04071206
0002d0 4d 2a 86 bb 49 48 e9 bb 34 12 e9 3c cf 78 c2 bc
       -0.004094398 -0.0071192128 0.028451063 -0.023739247
0002e0 0c a9 b3 3d 3a e9 94 3c 0e b4 84 3d 0c 64 ba 3c
       0.087724775 0.018177617 0.06479655 0.022752784
0002f0 25 ef b9 3c d9 5a 39 3c 4f 24 30 3c 27 62 c0 3c
       0.02269704 0.011313164 0.010750844 0.023484303
000300 81 08 d4 3c e2 31 b8 b4 68 4d 8b 3d 84 82 29 3d
       0.025882961 -3.4308965e-07 0.068018734 0.041384235
000310 b2 28 3c 3c 88 2f 22 be f0 0f 23 bf 43 ef 9e 3a
       0.011484312 -0.15838444 -0.63696194 0.0012125749
000320 c6 52 04 3c f3 4f 68 bc 88 ab 84 bc 96 fc 79 bc
       0.008076375 -0.014179218 -0.016195074 -0.015257975
000330 f9 86 33 bc 05 17 01 3c a4 47 b2 ba a7 7a 21 3d
       -0.010957473 0.007879023 -0.0013601673 0.03942361
000340 a0 0a 5a 3c 75 fa d3 3c 66 3a 94 3c d7 4d e5 ba
       0.013308197 0.025876263 0.018094253 -0.0017494512
000350 a7 69 cb bc 1f 50 e0 3d 0c 70 bf 3d 4c 9b d1 3b
       -0.024830652 0.10952782 0.09347543 0.0063966867
000360 be 71 80 3c d0 5b 8c 3b f8 22 5e bd 6f 7b 64 3d
       0.015679237 0.004283406 -0.054232568 0.055781778
000370 88 ca c9 3c 66 d2 6e 3d 43 e9 6f 3d 2b d2 86 3d
       0.024632707 0.05830612 0.058572065 0.06583055
000380 ed 9e 23 3d ad 5a 01 bc 44 43 97 3c 17 a6 98 bb
       0.039946485 -0.007895154 0.018464692 -0.0046584713
000390 a2 ce 2c 3c 04 ac 22 3d 24 05 69 bd 54 cd 58 3c
       0.010547312 0.039714828 -0.056889668 0.013232548
0003a0 b1 f5 c2 3c c2 76 56 bc 33 bb 02 3c 3e ab 55 bb
       0.023798795 -0.0130898375 0.007979202 -0.003260329
0003b0 3d bf a2 3d 0a c1 b0 be 91 51 a1 3d ff f4 f6 bd
       0.07946632 -0.34522277 0.07876886 -0.12058448
0003c0 6f 27 17 3c 02 71 ae 3c 55 81 19 3c 9a f1 5c 3c
       0.00922571 0.02129412 0.009369214 0.013485337
0003d0 b8 f6 2d 3d 80 e0 05 3d ee d8 bb 3a e4 5c 1b 3d
       0.042471617 0.032684803 0.0014331618 0.037930384
0003e0 d4 ff 69 3c 8c 10 91 3d 10 bb 3f 39 8b 62 9d 3c
       0.014282186 0.07083234 0.00018284866 0.019212028
0003f0 bd a9 7a 3c ef 30 c1 ba 4d 1b 52 bd 43 c2 85 3c
       0.015299258 -0.0014739315 -0.051295567 0.016327983

embedding.embedding.weight f4 [6698, 20]
000000 79 93 7b bc 04 54 18 3c 74 3c 65 bc 63 25 5e bc
       -0.015354984 0.009297375 -0.013991464 -0.013558718
000010 37 f5 6f bc 1d 8e 6a bc 90 2d cd 3b 1e c1 3d 3c
       -0.014645866 -0.014316109 0.006261535 0.011581687
000020 a4 4f 84 bc 65 f6 56 bc c4 88 27 3c 7e c2 32 3c
       -0.016151257 -0.0131202685 0.010225479 0.010910628
000030 28 a0 8b 3c 97 cd 1d bc 91 90 43 3c c6 90 86 bc
       0.017044142 -0.009631536 0.011936323 -0.016426455
000040 68 fa 63 bc 4e 90 82 bc 40 fe 6e 3c b1 ef 83 bc
       -0.013914682 -0.01593795 0.014586985 -0.016105505
000050 01 fb e3 3c 9e 32 02 bd 71 16 eb 3c 6a 84 e0 3c
       0.027829649 -0.031786554 0.028697224 0.02740689
000060 3c 69 ea 3c 31 f7 e7 3c 06 3e e7 bc 47 6f e8 bc
       0.028614633 0.028316112 -0.028227817 -0.028373374
000070 2c 21 e5 3c 79 22 06 3d 21 75 07 bd e8 86 eb bc
       0.02796992 0.03274772 -0.033070687 -0.028750852
000080 e7 68 e3 bc 4c 88 01 3d 9f 0b 01 bd 20 ca e2 3c
       -0.027759982 0.031624123 -0.031505223 0.027684271
000090 69 7f e6 3c 8d e6 e8 3c eb 95 e5 bc 3a e7 e2 3c
       0.028136926 0.028430248 -0.028025588 0.027698148
0000a0 cd 76 f4 bc e5 a5 2e 3d 08 ab 03 bd b0 49 dd bc
       -0.029841805 0.042638678 -0.03214553 -0.027012676
0000b0 16 5f f3 bc 56 5c e9 bc 6d b7 0d 3d 69 30 05 3d
       -0.029708426 -0.028486412 0.034598757 0.03251687
0000c0 08 69 ed bc 12 c1 15 bd 35 6e c3 3c a4 e6 2a 3d
       -0.028980747 -0.03656108 0.023856262 0.041723862
0000d0 93 ba f3 3c 55 3b db bc 03 32 e1 3c 28 7e 05 bd
       0.029752051 -0.02676169 0.027489668 -0.032591015
0000e0 8b a4 ef bc 74 e6 ff bc 42 8a f2 3c 7b da f2 bc
       -0.029253265 -0.031237818 0.029606942 -0.029645195
0000f0 5a f9 37 3d 19 fe 29 bd 92 9f 30 3d 0d 1c 36 3d
       0.044915535 -0.041502092 0.043120928 0.044460345
000100 f9 1e 2e 3d 83 f4 1b 3d 7e 46 de bc 43 29 0e bd
       0.042510007 0.03807498 -0.027133223 -0.03470732
000110 6e ad 22 3d 46 bd f7 3c 25 20 13 bd 70 8d 9f bc
       0.039716177 0.03024162 -0.035919327 -0.019476622
000120 17 bd 1b bd 8e fd 03 3d 72 c6 10 bd fb 1e 31 3d
       -0.038022127 0.03222423 -0.035345502 0.043242436
000130 cd 5f 27 3d ec 80 24 3d 91 3d 16 bd fa 60 22 3d
       0.040862847 0.040162012 -0.036679808 0.039643265
000140 d8 dc 07 bc 48 c6 62 3b b8 b7 f0 bb 00 11 fd bb
       -0.008292399 0.0034603048 -0.0073461197 -0.007722974
000150 94 2a f6 bb cf 1e d3 bb 4e 27 5f b9 26 f3 85 3b
       -0.0075124 -0.0064428817 -0.0002128158 0.0040878234
000160 b2 93 f9 bb 1c bf 6f bb 89 51 94 3b 0c c3 40 39
       -0.0076164836 -0.0036582416 0.0045263213 0.00018383207
000170 5e f3 f9 3b ac c2 5a bb c8 cd 96 3b 4a ed 07 bc
       0.0076278886 -0.0033380194 0.0046021678 -0.00829632
000180 e6 c0 ec bb 40 df ed bb 97 f7 d5 3b 1f aa f1 bb
       -0.0072251437 -0.0072592795 0.006529759 -0.0073750163
000190 89 6c 26 bc 84 89 0b 3c 4d e1 24 bc 6f 21 25 bc
       -0.010157713 0.008516673 -0.0100634815 -0.010078772
0001a0 9e 42 21 bc 20 b5 15 bc 50 3d d6 3b ea 6e fd 3b
       -0.009842543 -0.009137422 0.0065380707 0.0077341693
0001b0 93 9a 2d bc ea a8 0d bc 73 52 0d 3c 96 44 ee 3b
       -0.010595935 -0.008646229 0.008625614 0.0072713597
0001c0 01 0d 35 3c 8e ac 12 bc fe 25 1d 3c 14 8c 2c bc
       0.011050464 -0.008952273 0.009591578 -0.010531444
0001d0 2c f8 17 bc 52 21 41 bc 63 82 2c 3c 78 a4 3e bc
       -0.009275477 -0.011787729 0.0105291335 -0.011635892
0001e0 90 de 2c bc bc d0 1a 3c f4 87 33 bc 95 93 23 bc
       -0.01055111 0.00944918 -0.010957707 -0.009983917
0001f0 18 4e 29 bc 88 92 1f bc 23 45 05 3c ea b1 1d 3c
       -0.01033356 -0.009739526 0.008134159 0.009624938
000200 9a 48 2f bc 60 db 2e bc d5 6a 1f 3c 82 64 22 3c
       -0.010698462 -0.01067242 0.009730061 0.009911658
000210 89 31 43 3c 12 e9 1d bc 4e c2 28 3c 4e 6c 34 bc
       0.011913666 -0.009638088 0.010300232 -0.01101215
000220 b3 a5 22 bc d8 61 47 bc ce 96 2e 3c ab ee 46 bc
       -0.009927201 -0.012169324 0.010656072 -0.012141864
000230 72 aa eb 3c 26 45 04 bd 9c b2 f1 3c 7a d8 e8 3c
       0.028767798 -0.032292508 0.029504113 0.028423537
000240 fd 01 ea 3c 34 30 e4 3c 67 ed dc bc f2 e0 d8 bc
       0.028565401 0.027855016 -0.026968671 -0.02647445
000250 f7 03 e6 3c f3 6a e5 3c f8 1e f8 bc 19 f8 d5 bc
       0.028078062 0.028005099 -0.030288205 -0.026119279
000260 7e 22 e1 bc 44 95 e6 3c 56 26 ea bc 4a 6a ea 3c
       -0.027482267 0.028147347 -0.028582733 0.028615136
000270 c4 11 e9 3c cb 2e e9 3c ed be e6 bc ec f3 e5 3c
       0.028450854 0.028464695 -0.028167212 0.028070413
000280 84 3b 4e bc 36 9e 08 3c 60 d7 2d bc ce 4e 3f bc
       -0.012587432 0.008338502 -0.010610431 -0.011676503
000290 56 f4 49 bc c0 27 32 bc e3 3e b5 3b 88 c8 10 3c
       -0.012326321 -0.010873735 0.0055311783 0.008836873
0002a0 8f 2c 56 bc 60 fd 42 bc 28 04 21 3c b0 d4 00 3c
       -0.013072147 -0.01190123 0.009827651 0.007863209
0002b0 cc 1b 45 3c b7 ee 05 bc 94 38 13 3c 89 3b 65 bc
       0.012030553 -0.00817459 0.008985657 -0.013991245
0002c0 69 af 48 bc fe b5 4c bc b2 e4 12 3c 15 86 41 bc
       -0.012248852 -0.012494562 0.008965658 -0.011811753
0002d0 1e c8 ed bc 6e 87 d9 3c 6e e3 eb bc 21 93 e8 bc
       -0.029026087 0.026553836 -0.02879497 -0.028390469
0002e0 7f 77 e5 bc 54 ea dd bc bf ef b0 3c 73 96 d2 3c
       -0.028011082 -0.027089275 0.021598695 0.025706505
0002f0 2b 81 e5 bc 16 a4 d3 bc b7 ad de 3c 95 f1 b6 3c
       -0.028015694 -0.025835078 0.027182443 0.022331992
000300 8b e2 e1 3c 49 29 cd bc b4 b3 d6 3c 30 5d eb bc
       0.027573844 -0.0250441 0.026208736 -0.028730959
000310 25 2d e3 bc ad a7 e5 bc f0 c0 d2 3c a7 5e e7 bc
       -0.027731488 -0.028034056 0.025726765 -0.028243376
000320 ec 11 fc bc c4 13 de 3c 92 9b ff bc d7 ba fd bc
       -0.030770265 0.027109034 -0.031202111 -0.030972881
000330 64 10 fc bc 28 10 f7 bc fa 76 b4 3c 9e 64 da 3c
       -0.030769534 -0.030159071 0.022029389 0.026659306
000340 68 f8 00 bd fc 3f e6 bc a4 79 f0 3c 49 ab bd 3c
       -0.0314869 -0.028106682 0.029354878 0.023152964
000350 56 6d 01 3d 27 3a ea bc fb b1 f2 3c 94 8c 00 bd
       0.03159841 -0.028592182 0.029625883 -0.031384066
000360 82 fb f6 bc 00 20 01 bd 06 8c f8 3c e8 3c 00 bd
       -0.030149225 -0.03152466 0.030340206 -0.031308085
000370 a3 4f 8b bd 19 59 84 3d fe a7 8f bd fa 99 88 bd
       -0.06802299 0.064623065 -0.07014464 -0.06669994
000380 3b 47 8a bd c3 6b 85 bd 6a 8c 57 3d 2a 22 79 3d
       -0.067518674 -0.065146945 0.052624144 0.060823597
000390 c1 3b 8b bd 25 50 83 bd 83 de 84 3d 35 e2 66 3d
       -0.067985065 -0.06411771 0.06487753 0.05636807
0003a0 2b 58 8c 3d a6 c9 82 bd be 83 87 3d 6f 62 8e bd
       0.06852754 -0.06386118 0.06616925 -0.069523685
0003b0 b2 aa 86 bd 79 5c 90 bd bb fd 87 3d b3 e1 8e bd
       -0.06575526 -0.07048888 0.06640192 -0.069766425
0003c0 29 ad 79 3c 71 d6 3c bc ca e4 7b 3c d8 b5 7c 3c
       0.0152390385 -0.011525736 0.015374372 0.015424214
0003d0 24 b4 70 3c 80 c7 6c 3c f5 aa 16 bc ca 73 4b bc
       0.014691386 0.014451861 -0.009196033 -0.012417743
0003e0 c7 69 81 3c b5 67 5b 3c f0 7c 73 bc 3d 0a 03 bc
       0.015797509 0.013391425 -0.01486133 -0.007998046
0003f0 e5 91 7f bc 6c 1e 67 3c bb b7 6c bc 9b e2 7d 3c
       -0.015598749 0.014106374 -0.014448102 0.0154959215
